…
   command_ranges   │ {'command_curriculum': False, 'max_reverse_curriculum': 1.0, 'max_forward_curriculum': 1.0, 'forward_curriculum_threshold': 0.8, 'yaw_command_curriculum': False, 'max_yaw_curriculum': 1.0, 'yaw_curriculum_threshold': 0.5, 'num_commands': 4, 'resampling_time': 10.0, 'heading_command': False, 'global_reference': False, 'num_lin_vel_bins': 30, 'lin_vel_step': 0.3, 'num_ang_vel_bins': 30, 'ang_vel_step': 0.3, 'distribution_update_extension_distance': 1, 'curriculum_seed': 100, 'lin_vel_x': [-0.6, 0.6], 'lin_vel_y': [-0.6, 0.6], 'ang_vel_yaw': [-1, 1], 'body_height_cmd': [-0.05, 0.05], 'impulse_height_commands': False, 'limit_vel_x': [-10.0, 10.0], 'limit_vel_y': [-0.6, 0.6], 'limit_vel_yaw': [-10.0, 10.0], 'heading': [-3.14, 3.14]}
════════════════════╧═════════════════════
AFTER HistoryWrapper 16750346240 27262976 23627264
Environment Factor Encoder: Sequential(
  (0): Linear(in_features=18, out_features=256, bias=True)
  (1): ELU(alpha=1.0)
  (2): Linear(in_features=256, out_features=128, bias=True)
  (3): ELU(alpha=1.0)
  (4): Linear(in_features=128, out_features=18, bias=True)
)
Adaptation Module: Sequential(
  (0): Linear(in_features=585, out_features=256, bias=True)
  (1): ELU(alpha=1.0)
  (2): Linear(in_features=256, out_features=32, bias=True)
  (3): ELU(alpha=1.0)
  (4): Linear(in_features=32, out_features=18, bias=True)
)
Actor MLP: Sequential(
  (0): Linear(in_features=57, out_features=512, bias=True)
  (1): ELU(alpha=1.0)
  (2): Linear(in_features=512, out_features=256, bias=True)
  (3): ELU(alpha=1.0)
  (4): Linear(in_features=256, out_features=128, bias=True)
  (5): ELU(alpha=1.0)
  (6): Linear(in_features=128, out_features=12, bias=True)
)
Critic MLP: Sequential(
  (0): Linear(in_features=57, out_features=512, bias=True)
  (1): ELU(alpha=1.0)
  (2): Linear(in_features=512, out_features=256, bias=True)
  (3): ELU(alpha=1.0)
  (4): Linear(in_features=256, out_features=128, bias=True)
  (5): ELU(alpha=1.0)
  (6): Linear(in_features=128, out_features=1, bias=True)
)
AFTER Runner 16750346240 322961408 296072192
OrderedDict([('active.all.allocated', 22912), ('active.all.current', 135), ('active.all.freed', 22777), ('active.all.peak', 145), ('active.large_pool.allocated', 8), ('active.large_pool.current', 8), ('active.large_pool.freed', 0), ('active.large_pool.peak', 8), ('active.small_pool.allocated', 22904), ('acti
…
